GCN_module/gcn0806/best.pth (torch, 410250 bytes, 99 tensors)

data_bn.weight f4 [76]
000000 84 5f 43 3d 2d 86 90 3d 07 0a 91 3d 2d bd c7 3d
       0.047698513 0.07056842 0.07081991 0.09752879
000010 d4 e1 61 3e 66 51 0a bc 29 44 ca 3c 70 67 b2 3d
       0.22058803 -0.008442258 0.024690704 0.087111354
000020 19 bd b2 3d 22 71 7f 3d ae 85 6b 3d 6c 97 b3 bc
       0.08727474 0.06236375 0.057500534 -0.02192279
000030 0f cc 8b 3c 57 60 41 bc 82 53 31 3d ae b8 36 3e
       0.017065076 -0.011802754 0.04329253 0.17843887
000040 10 9b 05 3e 9c c5 5f 3d 60 b8 23 bc 98 64 6a 3a
       0.13047433 0.054631814 -0.009992689 0.0008941381
000050 e4 97 57 3d 28 2a 3d 3c fc e1 8b 3e 9f 0c 99 3e
       0.05263509 0.011545695 0.2732085 0.29892442
000060 9a ff aa 3e d9 4a 51 3e ba f3 4e 3e 80 b5 61 3e
       0.33398134 0.20438708 0.20210162 0.22041893
000070 a0 18 91 3d 65 bb 4e 3e 0d 87 06 3e 75 12 16 3e
       0.07084775 0.20188673 0.13137455 0.14655478
000080 a6 41 52 3e 74 a9 8c 3e d5 a8 ff 3e b3 7e c6 3e
       0.20532855 0.27473032 0.49933496 0.3876854
000090 d1 c2 1e 3e 14 c3 83 3e 97 3a 03 3d 03 0d c6 3d
       0.15504004 0.2573477 0.032038298 0.096704505
0000a0 b1 8c f3 3d c9 91 06 3e e0 0b 9e 3e 93 b7 24 3e
       0.11892069 0.1314155 0.30868435 0.16085653
0000b0 da 87 43 3e db 77 64 3e e5 9a 86 3e d5 c9 29 3d
       0.19094792 0.22311346 0.2629005 0.041452248
0000c0 13 4e 1f 3e 6b cf 00 3e b3 4a e2 3d a6 bd 02 3e
       0.15557127 0.12579124 0.11049404 0.12767658
0000d0 04 aa 63 3e c5 d1 9a 3e 2c b7 80 3e 37 05 2f 3e
       0.22232825 0.30238166 0.2513975 0.17091833
0000e0 9b 63 6c 3e 27 a5 c3 3e 2d 5c fa 3e 7b 45 01 3f
       0.23084871 0.3821194 0.4889845 0.50496644
0000f0 31 70 4a 3e db 1d 53 3f 66 dd e0 3d 5d 21 60 3e
       0.1976936 0.8246743 0.109797284 0.21887727
000100 cf ab 12 3e 9f 81 fe 3e 1a 73 3c 3e d2 18 a9 3e
       0.14323352 0.49708268 0.18403283 0.3302675
000110 1f e5 34 3e fa ca 2a 3e d1 cd 76 3e d1 b9 22 3e
       0.17665528 0.16678992 0.2410195 0.15891196
000120 aa 85 8f 3e a0 db 9e 3e ed c8 b3 3e 0c fd a7 3c
       0.28031665 0.31026936 0.35114232 0.020506404

data_bn.bias f4 [76]
000000 c3 3b b1 3d 99 43 24 3e c0 12 1e 3e 8a 96 cc bc
       0.08653977 0.16041411 0.1543684 -0.024974126
000010 d5 a7 7b be 4e 2d 48 3d 4e 46 ad bd cf 43 f4 bc
       -0.24575742 0.04887133 -0.08460675 -0.02981749
000020 11 42 e4 bd 3d 7f cb bc 4d 05 36 bc 7f 02 6e 3c
       -0.11145414 -0.024840945 -0.011109662 0.014526962
000030 c4 29 74 3a b4 01 b9 3c 90 17 47 bc b5 0d 9c 3d
       0.0009314085 0.02258382 -0.012151614 0.07619802
000040 df 3a 67 3d 6e 2d 86 bd fc 8a cb 3b 8c d4 14 3e
       0.05645263 -0.06551634 0.0062116366 0.14534205
000050 1c 5f ea 3d ef 29 3b 3e 61 e7 06 be 6f fc 9c be
       0.11443922 0.18277715 -0.13174202 -0.30661342
000060 6e 23 e1 bd 94 2a 33 be 84 71 61 be 8a 84 9a bd
       -0.10993086 -0.17496711 -0.22015959 -0.07544811
000070 be 57 b7 3d 9d 86 05 bd b9 05 44 3e e1 ee 0c 3e
       0.08952282 -0.03259908 0.19142808 0.13763
000080 9e 87 05 3e 36 af c9 3d 79 14 0a 3e d8 a9 27 3e
       0.13040015 0.09847872 0.13484372 0.16373384
000090 4c 22 45 be 4b 85 c4 bc e2 59 ec 3d b7 b7 ff 3c
       -0.19251364 -0.02398934 0.11540581 0.031215532
0000a0 74 0e b3 3b cb 65 8f bd ce 2d 1c be 2d 28 04 bd
       0.0054643694 -0.07001837 -0.15251848 -0.032264877
0000b0 1e 49 f8 bd c9 4b 63 be 14 84 5c bd c1 b6 21 3e
       -0.12123321 -0.22196878 -0.053836897 0.15792371
0000c0 ad 96 86 3d 5f de b7 3d a1 48 37 3d c9 51 59 3d
       0.06571708 0.08977961 0.044747 0.053056512
0000d0 87 fe e9 3c a4 b4 57 3d 57 b1 de 3d a2 72 08 be
       0.02856375 0.052662507 0.10873669 -0.13324979
0000e0 47 e3 81 bd 50 20 9c 3d 42 90 ad 3d 1e 0e a8 3d
       -0.06342178 0.076233506 0.084747806 0.08205818
0000f0 97 83 11 3c 29 f2 e6 bd ed 67 8b 3d a6 08 93 bc
       0.008881471 -0.11276657 0.06806932 -0.01794846
000100 27 96 3e 3b ef 79 99 be 27 5c 55 3e 90 b6 4a bd
       0.0029081197 -0.2997584 0.20835935 -0.04949051
000110 25 9a 02 3e 44 e0 b1 3d 9f 49 7e 3d d8 d3 c9 3b
       0.12754114 0.086853534 0.06208193 0.006159287
000120 3a 59 e2 bd 93 49 41 bd 53 10 07 be 3e 4e 1e 3c
       -0.11052175 -0.047189306 -0.13189821 0.009662209

data_bn.running_mean f4 [76]
000000 6a 5c ca 3e 92 da ca 3e d9 24 ca 3e 70 d1 ca 3e
       0.3952363 0.3961988 0.39481238 0.39612913
000010 60 24 ca 3e 52 df cb 3e 60 e3 c9 3e 62 1b cc 3e
       0.39480877 0.39818817 0.39431286 0.3986464
000020 5a 3d c9 3e d1 ec cb 3e b1 91 c9 3e 6d c8 cb 3e
       0.3930462 0.39829114 0.39368966 0.3980135
000030 f0 c5 c9 3e ea af cb 3e 71 89 c9 3e 56 f0 ca 3e
       0.39408827 0.3978265 0.39362672 0.39636487
000040 e8 c9 c9 3e c9 e2 c9 3e dd 63 ca 3e ea e9 e8 3e
       0.39411855 0.39430836 0.39529315 0.45490962
000050 f6 68 e7 3e 1b 44 e7 3e 94 ab e7 3e 37 c5 e7 3e
       0.45197266 0.45169148 0.4524809 0.4526765
000060 55 53 ef 3e 08 8b ef 3e ee 16 fa 3e c5 15 fa 3e
       0.46743265 0.4678576 0.4884562 0.48844734
000070 cf 2d 00 3f 5f 73 ff 3e 3e 4a 02 3f 10 4a 02 3f
       0.500699 0.4989271 0.50894535 0.5089426
000080 26 4e 0a 3f 8e 56 0a 3f b2 a0 11 3f 04 d4 11 3f
       0.54025495 0.5403832 0.56885827 0.56964135
000090 7f 2b ef 3e 6c 34 02 3f 8b b6 7c 3e b5 5f 80 3e
       0.46712872 0.5086124 0.2467901 0.2507302
0000a0 61 ba 80 3e 09 0b 81 3e dd 1f 7d 3e 3d a6 62 3e
       0.25142196 0.25203732 0.24719186 0.22133727
0000b0 d1 6d 60 3e 5d 7a 5a 3e e0 0b 5c 3e fb c1 56 3e
       0.21916892 0.2133574 0.21488905 0.20972435
0000c0 37 57 5c 3e f7 83 51 3e f2 7d 51 3e 45 06 4e 3e
       0.21517645 0.20460497 0.204582 0.20119579
0000d0 a9 52 4e 3e ba 67 4c 3e fc 36 4b 3e 9d aa 5b 3e
       0.2014872 0.19961444 0.19845194 0.21451803
0000e0 43 2d 51 3e c3 04 3f 3f ac a4 3e 3f e0 7a 3f 3f
       0.20427422 0.7461664 0.7447002 0.7479687
0000f0 3a cd 3d 3f 66 5e 39 3f b2 3b 3e 3f 89 04 3d 3f
       0.74141276 0.72409666 0.7430984 0.73835045
000100 3b 12 2a 3f 18 24 25 3f 36 2c 1c 3f df 00 10 3f
       0.6643407 0.645082 0.6100496 0.5625133
000110 8d 13 30 3f 7e cf 2f 3f f1 3f 34 3f fe 14 35 3f
       0.6877983 0.6867598 0.70410067 0.70735157
000120 26 74 30 3f 47 ac 31 3f 3b 5b 36 3f 0c ae 2a 3f
       0.6892723 0.694035 0.71232957 0.66671824

data_bn.running_var f4 [76]
000000 7a b1 aa 3d 0f 48 aa 3d f5 26 aa 3d 18 ad ac 3d
       0.08334632 0.08314525 0.08308212 0.084314525
000010 6d 86 aa 3d b3 cc ad 3d e4 81 aa 3d 37 bc ae 3d
       0.08326421 0.08486309 0.08325556 0.08531993
000020 4c b2 aa 3d f2 be ac 3d f1 52 ab 3d 10 e0 ae 3d
       0.08334789 0.084348574 0.08365429 0.0853883
000030 09 02 ad 3d 3d 9d ae 3d 85 df ac 3d 31 66 af 3d
       0.08447654 0.085260846 0.084410705 0.08564413
000040 d9 b6 ac 3d c3 bc ab 3d 8f f9 ac 3d d6 3f 7d 3d
       0.08433313 0.08385613 0.08446037 0.061828457
000050 e4 a7 7a 3d 9d 7e 7a 3d 60 0b 7b 3d cd 91 7b 3d
       0.06119527 0.061155904 0.061290145 0.061418343
000060 ad 4c 84 3d 27 7b 84 3d 08 5e 8e 3d 08 7e 8e 3d
       0.06459937 0.06468802 0.06951529 0.06957632
000070 6a cb 95 3d c7 dd 94 3d 0c 2f 99 3d e0 35 99 3d
       0.07314189 0.07268863 0.074796766 0.07480979
000080 24 b1 ab 3d 8d b9 ab 3d 57 bf be 3d 03 0b bf 3d
       0.08383396 0.083850004 0.09313839 0.09328272
000090 57 49 84 3d bb 27 99 3d 6d a6 eb 3c 26 2b 00 3d
       0.06459301 0.07478281 0.028765881 0.03129115
0000a0 55 55 f8 3c bb bb 04 3d c2 98 ee 3c 18 2b d4 3c
       0.030314127 0.032405596 0.029125575 0.025899455
0000b0 f8 d2 bd 3c 9a 95 bf 3c a2 07 b0 3c ec 23 b1 3c
       0.023171887 0.023386765 0.021488015 0.021623574
0000c0 aa dd ad 3c a1 13 a9 3c 63 3e a8 3c c3 2c 9e 3c
       0.021223862 0.020639243 0.02053756 0.019308453
0000d0 93 05 9e 3c 82 dd 98 3c 72 d8 96 3c ed 2a c0 3c
       0.019289767 0.01866031 0.018413756 0.023457969
0000e0 d2 4f a6 3c 2f 6d db 3c 29 6f e4 3c 66 5a 02 3d
       0.020301733 0.026785461 0.027885037 0.031824492
0000f0 72 87 d7 3c 40 1e f8 3c 02 1c c4 3c 46 79 ce 3c
       0.026309703 0.030287862 0.023939136 0.025204312
000100 88 4f d5 3c 79 32 06 3d 96 60 dc 3c d1 a3 eb 3c
       0.0260389 0.03276298 0.026901525 0.028764637
000110 92 99 97 3c 0a f3 a9 3c 57 eb dd 3c 58 6a e3 3c
       0.018505845 0.020745773 0.027089758 0.02776067
000120 2d 22 e0 3c bd 07 02 3d 02 93 d1 3c db 7a a6 3c
       0.027360046 0.03174566 0.025582794 0.020322254

conv0.0.weight f4 [32, 4, 3, 3]
000000 f9 58 3c 33 c4 e5 58 33 96 6c 28 33 60 47 4a 33
       4.385308e-08 5.050039e-08 3.9214306e-08 4.7096705e-08
000010 26 ff 5a 33 24 f7 35 33 ef 9f 32 33 ed 10 50 33
       5.0989136e-08 4.236712e-08 4.1589313e-08 4.8444168e-08
000020 c3 70 2e 33 3b 45 ec b4 cf 97 09 35 c3 01 25 b1
       4.0615088e-08 -4.4008797e-07 5.125739e-07 -2.4011662e-09
000030 e0 8f d9 34 b4 ea 4f 32 ed e1 52 34 8d fb 7c b3
       4.0524083e-07 1.2102351e-08 1.9639965e-07 -5.8902106e-08
000040 72 5d f7 34 8c 74 f3 31 e0 65 a2 b4 46 d0 c2 32
       4.6075326e-07 7.0854806e-09 -3.0248975e-07 2.2679284e-08
000050 88 ce d1 b4 11 df 13 b4 39 25 c1 b4 82 0e 63 34
       -3.9079555e-07 -1.3771593e-07 -3.5976134e-07 2.11463e-07
000060 18 be ea b4 1f 3f bc b4 f4 ca 99 b4 17 88 25 b7
       -4.3724208e-07 -3.5063655e-07 -2.864614e-07 -9.866452e-06
000070 e8 04 d7 b6 ff 2b 47 b7 4f 46 20 b6 8c 0d 3b b7
       -6.4080705e-06 -1.1871568e-05 -2.3882783e-06 -1.1149223e-05
000080 07 6e 54 b6 d4 fe cc b6 10 fc 0f b7 54 eb 85 b6
       -3.1654506e-06 -6.1093397e-06 -8.582152e-06 -3.9911047e-06
000090 18 cf 55 24 df 0f 75 25 5e 1a b1 23 e4 51 d1 23
       4.6362428e-17 2.125574e-16 1.9201545e-17 2.2694507e-17
0000a0 f1 ea db 24 76 a1 85 23 bc 0e 01 24 61 f6 cd 24
       9.5374117e-17 1.448827e-17 2.7984897e-17 8.932196e-17
0000b0 b2 da aa 23 8e 66 8e ae 23 0f d6 2e 6d fe 9b 2d
       1.8524058e-17 -6.47563e-11 9.734282e-11 1.7734448e-11
0000c0 60 1b 5f 2e e7 1e 9f ae c8 a1 c8 ae d7 01 07 ae
       5.0728644e-11 -7.235972e-11 -9.123685e-11 -3.069708e-11
0000d0 14 a3 9d ae 58 84 81 2e 96 63 44 2e 3b 00 92 2e
       -7.168502e-11 5.88975e-11 4.465369e-11 6.639352e-11
0000e0 ff 37 13 2e 25 df fe ab 55 1d 9d 2e 40 91 8c ae
       3.3473665e-11 -1.810972e-12 7.144744e-11 -6.3922645e-11
0000f0 ba d8 5a 2c 80 95 6e ae 59 23 a6 2d ab a6 ca b0
       3.109997e-12 -5.4247717e-11 1.8887713e-11 -1.4744804e-09
000100 94 e8 8a 31 2c 84 9c af 19 d9 15 32 4a 98 7d b1
       4.0427697e-09 -2.8470148e-10 8.722304e-09 -3.6902912e-09
000110 b8 f2 6e b1 01 cc 80 b1 dc 2d 1f 32 a4 ae 8a 31
       -3.4771528e-09 -3.748483e-09 9.265445e-09 4.036183e-09
000120 d7 f2 48 aa 66 5c 7c aa b8 48 84 aa 49 c1 86 aa
       -1.784782e-13 -2.2414153e-13 -2.349837e-13 -2.39373e-13
000130 17 7a 8a aa 18 5d 76 aa 26 d5 45 aa ad ee 38 aa
       -2.459844e-13 -2.1881488e-13 -1.7571066e-13 -1.642529e-13
000140 b0 72 54 aa 0a 42 63 2c 90 42 ed 2c 20 58 84 2c
       -1.8869173e-13 3.22953e-12 6.743335e-12 3.7614495e-12
000150 92 61 13 2d e0 66 a8 2c 3d 7c e4 2c 99 18 41 2c
       8.3776475e-12 4.7862686e-12 6.493943e-12 2.7440604e-12
000160 20 7d 7b 2c 85 e0 b7 2c 9e 2c 75 2d 0c 93 29 2d
       3.5738704e-12 5.2260995e-12 1.3936545e-11 9.639189e-12
000170 b0 42 53 2d fb 9a 9c 2d a3 ff 0c 2d 9c c2 06 2d
       1.2008769e-11 1.7803972e-11 8.014841e-12 7.66023e-12
000180 f1 e0 93 2d c6 04 0d 2d 26 50 02 2d 02 d4 c4 1f
       1.681186e-11 8.015982e-12 7.407441e-12 8.3359966e-20
000190 4b e2 c3 1f 39 8f d8 1f 5b 47 b9 1f 0c 3d bb 1f
       8.296008e-20 9.17165e-20 7.8468595e-20 7.9298574e-20
0001a0 64 2d cd 1f 81 c8 b8 1f 8c 34 ba 1f cf 56 cb 1f
       8.689597e-20 7.825874e-20 7.8860996e-20 8.611746e-20
0001b0 4c 10 00 80 a3 09 00 80 88 03 00 80 9a 0a 00 80
       -5.846e-42 -3.457e-42 -1.267e-42 -3.803e-42
0001c0 9b 00 00 00 16 02 00 00 98 17 00 80 f9 0f 00 80
       2.17e-43 7.48e-43 -8.464e-42 -5.73e-42
0001d0 3e 0d 00 80 27 cd 35 85 94 92 e9 85 d3 05 48 86
       -4.75e-42 -8.5482596e-36 -2.1965059e-35 -3.7620098e-35
0001e0 b5 4f 88 85 d8 3c 67 86 44 d8 54 86 c2 34 3f 85
       -1.2818658e-35 -4.3490972e-35 -4.0031655e-35 -8.990467e-36
0001f0 a5 8c 3a 86 6b 13 23 86 e5 34 1d 86 a3 c6 93 86
       -3.508604e-35 -3.067116e-35 -2.956728e-35 -5.5587125e-35
000200 a4 c2 33 87 77 1f 55 86 55 2d 0e 87 3d ec 3e 87
       -1.3523663e-34 -4.0083964e-35 -1.0696215e-34 -1.4363435e-34
000210 6b b5 1e 86 9e 20 f6 86 5c 4d 1d 87 ce 72 6a 06
       -2.9849782e-35 -9.258284e-35 -1.1834101e-34 4.4094854e-35
000220 1c 64 45 06 5d 0e 2f 06 08 ee 60 06 83 d4 33 06
       3.712513e-35 3.2924394e-35 4.2304595e-35 3.3822287e-35
000230 9e 5e 23 06 73 5c 48 06 dd 4f 4e 06 39 b7 14 06
       3.0726406e-35 3.768374e-35 3.8802968e-35 2.7970317e-35
000240 6a cd 49 1a 2d 76 40 1a 31 94 d5 18 95 8e 73 1b
       4.1731758e-23 3.980013e-23 5.5208845e-24 2.014656e-22
000250 df 67 cd 1a c2 ab 94 17 d3 58 9f 1a cd e5 5d 19
       8.4953826e-23 9.607634e-25 6.590436e-23 1.147184e-23
000260 93 95 5c 18 a1 69 5c a7 f9 20 01 28 95 85 b5 a7
       2.850985e-24 -3.0588395e-15 7.168088e-15 -5.038242e-15
000270 5d 65 93 27 c4 20 90 27 66 f9 ee 27 dc 96 fd a6
       4.0910594e-15 4.0003553e-15 6.632867e-15 -1.7596292e-15
000280 e7 94 21 28 6d aa d8 27 59 08 5a 28 93 61 ad a8
       8.969583e-15 6.013682e-15 1.2103241e-14 -1.9249174e-14
000290 45 3b 1e 29 51 7b 99 27 ff dc ab a7 19 2f 9b 29
       3.5134456e-14 4.259973e-15 -4.770164e-15 6.891553e-14
0002a0 7b 02 87 28 98 73 28 a8 7c db 7b a8 e2 2a 86 27
       1.4989087e-14 -9.350939e-15 -1.3980892e-14 3.7238965e-15
0002b0 6f 06 c3 2b 16 11 01 ab 12 68 b6 ab 86 85 44 ab
       1.3857369e-12 -4.585372e-13 -1.2960763e-12 -6.981849e-13
0002c0 ca 47 d3 ab 6c a2 86 2b 88 92 00 2c 44 7d 07 ac
       -1.5012377e-12 9.566354e-13 1.8271235e-12 -1.925419e-12
0002d0 69 cb 25 1f 22 a3 71 20 62 d0 3d 20 c2 3b 02 1e
       3.5108366e-20 2.046747e-19 1.6077871e-19 6.8945e-21
0002e0 f0 e3 09 20 9d cb 5f 20 97 69 1a 1f c5 b6 12 1f
       1.167977e-19 1.8956205e-19 3.269811e-20 3.1067886e-20
0002f0 82 bd fb 1e f1 ee 37 a7 18 a6 ac aa 1b 19 f8 a9
       2.6654037e-20 -2.5525882e-15 -3.0668588e-13 -1.10177675e-13
000300 39 09 a2 2b c7 be 84 2b 94 b1 a8 a9 24 81 fa aa
       1.1513352e-12 9.432115e-13 -7.4915036e-14 -4.449853e-13
000310 53 5c da a9 7f 6c 58 a9 a4 be 02 a9 f5 79 69 a8
       -9.6971605e-14 -4.805574e-14 -2.9031153e-14 -1.29605435e-14
000320 ed 3c a5 aa 6c 75 ae ab 5d 8d 46 2b 78 fe 8f 28
       -2.9352164e-13 -1.2396035e-12 7.053991e-13 1.5986547e-14
000330 69 10 e9 aa 2e eb 40 ab e6 f9 6d aa 74 14 8c ac
       -4.14005e-13 -6.853848e-13 -2.113653e-13 -3.98131e-12
000340 06 e0 f9 ab 81 ad fc 2b ad 8e 36 2c f2 10 18 2c
       -1.7754693e-12 1.7953834e-12 2.5942957e-12 2.1609906e-12
000350 58 a6 c2 ac fb 72 3f ac 7b ad 85 ab 95 3f ca 2c
       -5.5322795e-12 -2.720656e-12 -9.498369e-13 5.7482443e-12
000360 99 c2 a1 9f ea 52 19 9f 91 b2 e9 9f c6 8d 5e 9f
       -6.850809e-20 -3.2467595e-20 -9.897475e-20 -4.71276e-20
000370 c0 df 0b 9f 60 dd 98 9f 53 b2 80 9f 03 94 1f 9f
       -2.9619477e-20 -6.474074e-20 -5.450512e-20 -3.3791992e-20
000380 0f ca 85 9f ac 5e 79 a6 65 28 fb a5 e9 3c ac a5
       -5.666197e-20 -8.6517533e-16 -4.3568932e-16 -2.9878518e-16
000390 1f 82 4a a6 c7 59 c1 a5 27 72 84 a5 fe 62 52 a6
       -7.0259175e-16 -3.3540999e-16 -2.2975703e-16 -7.2992545e-16
0003a0 f1 9f c6 a5 57 86 91 a5 86 5b d2 a5 e8 24 3e a5
       -3.4455905e-16 -2.5244523e-16 -3.6491212e-16 -1.6492377e-16
0003b0 3e d5 11 a5 10 0a 8c a5 40 78 e0 a4 a1 b7 bd a4
       -1.2648994e-16 -2.4292947e-16 -9.7348226e-17 -8.2276764e-17
0003c0 92 ea af a5 d1 4d 15 a5 aa 11 01 a5 96 78 78 0e
       -3.0516612e-16 -1.2950055e-16 -1.1194951e-16 3.062642e-30
0003d0 7c b7 4c 0e 3e e0 51 0e 41 38 5d 0e 66 c9 36 0e
       2.5233286e-30 2.5869208e-30 2.7267438e-30 2.2530202e-30
0003e0 76 53 33 0e 73 2a 55 0e d8 8c 2a 0e 33 04 2f 0e
       2.2103638e-30 2.6274716e-30 2.1021932e-30 2.1572437e-30
0003f0 c7 c0 b6 a4 56 7d 4e a6 b9 78 0d a5 8b 30 b7 a5
       -7.9256496e-17 -7.164047e-16 -1.2270703e-16 -3.1778334e-16

conv0.1.weight f4 [32]
000000 d9 76 6e b4 1f 4d 9d a1 ef 43 9c b0 43 51 25 11
       -2.2208714e-07 -1.0659148e-18 -1.1369802e-09 1.3041246e-28
000010 fe 96 15 19 c8 6b 26 98 78 41 42 a8 88 aa f4 9a
       7.733612e-24 -2.1509413e-24 -1.078336e-14 -1.0119154e-22
000020 b0 21 4a 21 67 8d a4 24 5d 57 a4 a0 74 20 43 af
       6.8484847e-19 7.136321e-17 -2.7840493e-19 -1.7746676e-10
000030 02 67 1b 96 0a c0 44 35 48 4a fc 0e 41 a7 9c a3
       -1.2553304e-25 7.3295143e-07 6.2194327e-30 -1.6984389e-17
000040 1e 8e d4 15 f6 1e 3c 38 82 d9 c7 ab bd 3d 87 37
       8.585034e-26 4.4851527e-05 -1.4200171e-12 1.6122003e-05
000050 0b 99 4b 0e f8 0a 00 00 12 1b 60 a6 b3 ca cf a7
       2.509537e-30 3.935e-42 -7.77523e-16 -5.767381e-15
000060 fb 29 9e a7 bc 1d 40 a8 3e 3f 0a 1e 6a f2 21 ad
       -4.3899325e-15 -1.0664589e-14 7.318737e-21 -9.205617e-12
000070 a5 d4 a6 8b 32 64 ed a4 b7 7c 85 a4 8c a5 4f 03
       -6.4260826e-32 -1.02952103e-16 -5.789083e-17 6.102187e-37

conv0.1.bias f4 [32]
000000 b5 25 1b 11 9b 15 00 00 f9 7e b3 83 9f 08 00 00
       1.2238963e-28 7.75e-42 -1.0549826e-36 3.093e-42
000010 db 14 00 00 f3 07 00 80 f3 15 00 80 c8 0c 00 80
       7.482e-42 -2.852e-42 -7.874e-42 -4.585e-42
000020 1a 01 00 00 81 18 00 80 b1 04 00 00 16 fc 0a 05
       3.95e-43 -8.79e-42 1.683e-42 6.53503e-36
000030 98 12 00 80 13 34 67 98 b5 16 00 80 12 14 00 80
       -6.67e-42 -2.9882341e-24 -8.146e-42 -7.2e-42
000040 24 14 00 80 a5 38 7a 98 27 14 00 00 50 66 27 0a
       -7.225e-42 -3.234034e-24 7.229e-42 8.06e-33
000050 58 18 00 00 1c 0b 00 80 0d f1 87 85 ea 0d 00 00
       8.733e-42 -3.985e-42 -1.2783887e-35 4.991e-42
000060 2e 04 00 00 3f 0c 00 00 da 17 00 00 b0 17 00 00
       1.5e-42 4.393e-42 8.556e-42 8.497e-42
000070 fe 17 00 00 3a 0e 00 80 9d 09 00 00 70 11 00 80
       8.607e-42 -5.104e-42 3.449e-42 -6.255e-42

conv0.1.running_mean f4 [32]
000000 f7 fc b2 38 97 8f 28 a1 04 00 00 80 04 00 00 00
       8.53482e-05 -5.7110654e-19 -6e-45 6e-45
000010 04 00 00 00 04 00 00 80 04 00 00 00 04 00 00 00
       6e-45 -6e-45 6e-45 6e-45
000020 04 00 00 80 04 00 00 00 04 00 00 80 60 20 00 35
       -6e-45 6e-45 -6e-45 4.773083e-07
000030 04 00 00 00 05 a0 87 36 86 89 21 8a 04 00 00 00
       6e-45 4.0419422e-06 -7.777733e-33 6e-45
000040 04 00 00 80 b1 a6 f8 aa 34 af b9 07 28 93 04 39
       -6e-45 -4.4169315e-13 2.7938681e-34 0.00012643321
000050 04 00 00 80 04 00 00 80 04 00 00 80 04 00 00 00
       -6e-45 -6e-45 -6e-45 6e-45
000060 04 00 00 00 04 00 00 00 04 00 00 80 04 00 00 00
       6e-45 6e-45 -6e-45 6e-45
000070 04 00 00 80 04 00 00 00 04 00 00 00 04 00 00 80
       -6e-45 6e-45 6e-45 -6e-45

conv0.1.running_var f4 [32]
000000 bb e3 25 31 db fc d7 15 04 00 00 00 04 00 00 00
       2.414011e-09 8.7236744e-26 6e-45 6e-45
000010 04 00 00 00 04 00 00 00 04 00 00 00 04 00 00 00
       6e-45 6e-45 6e-45 6e-45
000020 04 00 00 00 04 00 00 00 04 00 00 00 70 2e b0 29
       6e-45 6e-45 6e-45 7.824026e-14
000030 04 00 00 00 97 49 e8 2c 92 e7 02 00 04 00 00 00
       6e-45 6.6020067e-12 2.66743e-40 6e-45
000040 04 00 00 00 82 9a b6 1f ea 1b 00 00 70 9c db 31
       6e-45 7.733561e-20 1.0014e-41 6.3915238e-09
000050 04 00 00 00 04 00 00 00 04 00 00 00 04 00 00 00
       6e-45 6e-45 6e-45 6e-45
000060 04 00 00 00 04 00 00 00 04 00 00 00 04 00 00 00
       6e-45 6e-45 6e-45 6e-45
000070 04 00 00 00 04 00 00 00 04 00 00 00 04 00 00 00
       6e-45 6e-45 6e-45 6e-45

v0.0.weight f4 [32, 2, 3]
000000 50 36 18 3c ac b0 98 3b 06 8b 96 bb 1e 0b 93 3a
       0.009290293 0.004659733 -0.0045942096 0.0011218523
000010 b3 e8 fb ba c8 83 92 bb ac b0 65 bb cb f5 07 3b
       -0.001921913 -0.004471276 -0.0035047932 0.002074587
000020 65 2b 0a 3a 22 d0 f6 38 09 e3 ce 39 e3 98 23 3a
       0.00052707485 0.00011768962 0.00039460536 0.00062407384
000030 2e f8 0b 30 50 13 a7 2f 1a 23 00 2e ca de 93 30
       5.092059e-10 3.0390845e-10 2.9135007e-11 1.0758978e-09
000040 cf 5c 5f 30 13 8f 1b 30 d0 89 0a be e3 71 d4 bd
       8.1258816e-10 5.659199e-10 -0.13529134 -0.10373285
000050 57 a1 5f bd 1e c7 3e bd ec 77 8a 3e ab 4c 84 3e
       -0.054597225 -0.04657661 0.27044618 0.25839743
000060 c1 5b 46 b8 57 07 1c b8 b1 45 0a b6 98 73 47 36
       -4.729233e-05 -3.7200134e-05 -2.0604168e-06 2.9720595e-06
000070 5b 8f 24 37 ae 59 93 37 1b ad 84 31 37 79 10 b0
       9.808539e-06 1.7565526e-05 3.8613854e-09 -5.255915e-10
000080 a0 6d 38 33 a3 93 8c af c5 6d 81 af d6 96 94 af
       4.2940542e-08 -2.5570754e-10 -2.354296e-10 -2.7028219e-10
000090 d1 a1 7f ba 35 20 e6 b9 50 e3 a2 38 b5 11 cd b8
       -0.00097515906 -0.00043893015 7.767102e-05 -9.77846e-05
0000a0 b1 3c e1 39 22 b0 5f 3a 29 fd 24 3a e1 41 b6 38
       0.00042960563 0.0008533021 0.00062938273 8.690707e-05
0000b0 cd f0 27 b9 f9 5f cf b8 6f c9 b5 b8 c9 31 a3 b8
       -0.00016016066 -9.8884055e-05 -8.6682725e-05 -7.781719e-05
0000c0 ef 6f 07 3c 6a 39 f0 3b cb 6b 18 3b ae 0c 33 3c
       0.008266433 0.007331063 0.002325761 0.010928316
0000d0 e4 14 fe bb ce 32 6f bc 4b a9 32 b4 75 f2 85 b4
       -0.007753955 -0.014599515 -1.663913e-07 -2.494959e-07
0000e0 2f 7d b6 b3 d9 cf 0c b3 c5 04 20 b3 e4 01 21 b3
       -8.497806e-08 -3.2785326e-08 -3.725724e-08 -3.7487453e-08
0000f0 21 3f 16 38 5d e6 04 39 ef ae f2 b8 06 de 53 b6
       3.582158e-05 0.00012674318 -0.00011572043 -3.1570685e-06
000100 21 b4 b2 b5 3b e7 60 34 5a bf 14 3d cb f1 4c 37
       -1.3314458e-06 2.0945747e-07 0.0363153 1.2215644e-05
000110 a7 25 ca bc b8 6c 0a bc 77 7b 59 bc 01 01 82 bd
       -0.024676157 -0.008448772 -0.013274065 -0.06347848
000120 b0 2e b4 bb 7b ac 6f bb ad 34 3c ba 3f 90 cc 38
       -0.0054987296 -0.0036571312 -0.000717948 9.754346e-05
000130 34 c3 0c 3b ce fc 4c 3b 6a d2 ab ba f3 cf 8b 3b
       0.0021478655 0.0031278613 -0.0013108973 0.004266733
000140 f3 3f 4a 3c 59 04 71 3c d4 65 b1 3c 38 0d cf 3c
       0.012344348 0.014710509 0.021655 0.025274858
000150 9f 46 88 bb f0 41 87 3a 3a c0 30 3a 40 31 cd 3a
       -0.0041588093 0.0010319334 0.0006742511 0.0015654936
000160 68 b2 64 b9 dc 7f 7b 3a 4d c9 0a 3e 87 b2 6e bd
       -0.00021810236 0.00095939427 0.13553353 -0.058275726
000170 9e 62 65 3e b8 42 13 3d 60 22 b6 be 7f 13 0f be
       0.224009 0.0359523 -0.355731 -0.13972281
000180 cf 61 54 b6 6d d0 90 37 c8 bf 42 36 94 5d 01 b2
       -3.1647394e-06 1.7263194e-05 2.9019884e-06 -7.5300655e-09
000190 2d 70 ff b1 f3 2d 03 b2 8f a8 bf b5 e1 70 d2 35
       -7.4342297e-09 -7.635651e-09 -1.4279666e-06 1.5679071e-06
0001a0 4a d5 60 36 24 23 c0 37 44 4d bf 37 aa f7 05 b8
       3.3502752e-06 2.2904547e-05 2.2804954e-05 -3.1940326e-05
0001b0 4e 2e d2 33 3b 92 33 36 43 91 d8 b5 e2 29 4e b3
       9.78731e-08 2.6758196e-06 -1.6135531e-06 -4.8001205e-08
0001c0 f3 df 8b b2 fc ae 8e 31 59 2c 10 bb 01 d4 ee 3a
       -1.628357e-08 4.1526373e-09 -0.002199909 0.0018221141
0001d0 d0 6a b6 b9 38 9a 40 ba 81 a8 4a 39 f8 34 fd 39
       -0.00034793327 -0.0007347199 0.00019326994 0.00048295385
0001e0 42 df 04 be 05 72 26 3d cd 17 3a be ff 8a ce 3d
       -0.12975791 0.04063608 -0.18173142 0.10085105
0001f0 23 84 2b 3e 8e e1 1b 3e 6d 65 f2 3d 4e b2 d9 3d
       0.16749625 0.15222761 0.11835752 0.10629712
000200 96 66 d5 bd dd 71 05 3c 29 2e 15 bd b8 37 08 be
       -0.10419957 0.008144823 -0.036420975 -0.13302505
000210 54 5c 86 ba 39 c9 56 39 0f b4 04 3a 6a b6 a6 b9
       -0.0010250905 0.00020483592 0.0005062231 -0.00031797896
000220 ea 58 09 3a eb fa 4b 3a 72 79 80 30 e5 5b 70 b1
       0.00052393845 0.0007781225 9.347743e-10 -3.4976833e-09
000230 d5 73 03 b2 58 cb 07 31 ad 92 7f 30 40 f2 0d af
       -7.651541e-09 1.9760673e-09 9.29769e-10 -1.290994e-10
000240 7f 47 2e b6 7f 88 5f b6 c8 c1 3f b6 f5 5a b8 37
       -2.5969637e-06 -3.330904e-06 -2.8574013e-06 2.1976864e-05
000250 d9 11 a0 b6 2e d2 85 33 ab 30 ff bb 45 0c 95 3c
       -4.7704493e-06 6.2315266e-08 -0.007787784 0.018194327
000260 f3 89 29 bd 52 6e d6 3c ee 48 0c 3d 24 bf 8d bc
       -0.041391324 0.026175652 0.03424924 -0.017303057
000270 ba 1e d2 b6 91 3a a8 b4 2d 83 0d 37 e3 88 ca b4
       -6.2620647e-06 -3.133505e-07 8.434797e-06 -3.772503e-07
000280 1e 3e c1 b4 69 48 b7 b4 a0 1c cc 3e 65 a1 a2 bd
       -3.5994248e-07 -3.4139092e-07 0.3986559 -0.0794094
000290 c5 03 e4 bd 07 0e a4 3d 83 7e 86 be 83 e6 b8 bd
       -0.111335315 0.08010488 -0.26268396 -0.090283416
0002a0 5d 90 1f ba 15 ab 05 ba 01 61 e6 b9 9d 3d 10 3a
       -0.00060868805 -0.00050990406 -0.00043941292 0.0005502345
0002b0 2a 6b 3c 3a ff 91 7b 3a ac 24 60 3e 93 bb 88 3e
       0.00071875995 0.0009596645 0.21888989 0.26705608
0002c0 43 7c 8d be 28 2c f5 3d 8a 7a 82 be 07 f9 06 be
       -0.27633867 0.11971313 -0.25484115 -0.13180934
0002d0 20 b7 6d b2 96 20 51 b2 22 78 62 b3 74 b6 04 b0
       -1.3836853e-08 -1.217281e-08 -5.2728986e-08 -4.82806e-10
0002e0 25 64 03 b0 09 54 d2 af 16 99 c9 b5 4c 0e 90 36
       -4.7799836e-10 -3.8258488e-10 -1.5020221e-06 4.293199e-06
0002f0 0d e2 78 37 a9 52 f5 b7 2b 8c 5b 38 e5 6b a9 38
       1.4834583e-05 -2.9244768e-05 5.234421e-05 8.078645e-05

v0.1.weight f4 [32]
000000 aa f1 9a ba 3f cc 29 3a e4 a0 94 b2 19 0c 93 3e
       -0.0011821289 0.00064772734 -1.7302632e-08 0.28720167
000010 b6 e7 c7 37 b1 08 b1 31 2e 19 6e 39 8a 55 8c 37
       2.3830547e-05 5.152366e-09 0.00022706829 1.6729133e-05
000020 a9 07 19 ba 21 4e b1 b4 a2 f1 c6 36 e5 93 91 b8
       -0.0005837628 -3.3025665e-07 5.9289896e-06 -6.941686e-05
000030 fc a7 f6 39 17 f3 02 3c 7e 9b 0b 39 4c d5 5f 3e
       0.00047045934 0.007992527 0.00013313998 0.2185871
000040 c8 0c cd b3 b3 95 ff 37 04 b6 ca b3 69 16 b0 34
       -9.548381e-08 3.0468078e-05 -9.4394665e-08 3.279886e-07
000050 ca 24 c5 3d 6d 2b 6b 3d a6 f7 ed 39 fa 88 dc 32
       0.096261576 0.05741446 0.00045388675 2.567366e-08
000060 c7 8e fc b6 4a 13 78 3b c7 98 fb 34 93 8e a6 3e
       -7.5268067e-06 0.0037853294 4.6863553e-07 0.3253065
000070 b9 d7 37 b8 f6 ce 9b 3e 90 53 92 b2 77 ac bd 38
       -4.3831507e-05 0.30431336 -1.7034637e-08 9.0443464e-05

v0.1.bias f4 [32]
000000 89 21 1d ba ad c9 91 b4 06 c7 95 b2 44 8f b6 bc
       -0.0005994072 -2.7155093e-07 -1.7436388e-08 -0.022285111
000010 ce 47 8b 34 ce 69 bf b3 99 0f eb b7 25 cb 34 35
       2.5943012e-07 -8.913376e-08 -2.8021446e-05 6.735084e-07
000020 44 4b fb b7 66 b8 78 b4 21 62 a9 34 3d 37 b2 b9
       -2.995658e-05 -2.3163884e-07 3.15501e-07 -0.0003399196
000030 97 12 db b9 40 0b ba bb 47 33 21 b5 7d 60 2c bb
       -0.00041784786 -0.0056776106 -6.005179e-07 -0.0026302629
000040 14 72 aa b3 c9 47 2e b5 4a 29 a7 34 cf 86 2f 33
       -7.9369926e-08 -6.492451e-07 3.1136216e-07 4.086797e-08
000050 bf 91 49 3a 8d 5e 09 bc 47 2f 98 b5 d3 b3 59 b4
       0.00076892594 -0.008384359 -1.1338642e-06 -2.027512e-07
000060 8a 34 9b 35 72 c2 86 ba b7 a5 3c b6 bc c2 bb 3d
       1.1563691e-06 -0.0010281338 -2.8110642e-06 0.09168002
000070 2a 0b 03 b7 38 ea 65 3d d2 76 ab b3 03 c8 e0 32
       -7.810808e-06 0.05613157 -7.984421e-08 2.6167987e-08

v0.1.running_mean f4 [32]
000000 96 20 33 3a 79 b8 f2 37 04 00 00 80 44 ee b9 3c
       0.0006833164 2.893455e-05 -6e-45 0.022696622
000010 23 3a 04 b7 10 68 82 24 d8 1e a5 b7 de 10 2e 38
       -7.881349e-06 5.65548e-17 -1.9683896e-05 4.150054e-05
000020 0d f3 74 3a 7f 48 c0 b3 88 0f c6 36 b7 29 19 bc
       0.0009344079 -8.953884e-08 5.902668e-06 -0.0093483245
000030 31 d7 24 ba 58 e0 22 3c c6 27 04 b8 8e f0 97 bc
       -0.00062881695 0.009941183 -3.1508294e-05 -0.018547323
000040 6d 5b 1b 36 7c eb 38 36 40 83 23 34 50 c3 dd b8
       2.3150017e-06 2.7555207e-06 1.5228306e-07 -0.00010574481
000050 13 ca 8d 3c d6 73 9f bb 63 ab ba 38 ed e8 3e 91
       0.01730827 -0.0048661036 8.9010944e-05 -1.5060133e-28
000060 18 34 b2 35 d7 9c b7 3a 2d b2 11 34 2a 66 00 bc
       1.3277195e-06 0.0014008534 1.3568997e-07 -0.007836858
000070 46 10 a5 38 25 b1 e5 bb a3 bf 6e a9 86 06 93 37
       7.870844e-05 -0.0070096427 -5.3012834e-14 1.7526803e-05

v0.1.running_var f4 [32]
000000 f5 a9 04 34 29 37 1f 30 04 00 00 00 f3 ff 4c 39
       1.2355288e-07 5.792225e-10 6e-45 0.00019550305
000010 ae c9 8b 2d 82 73 f5 17 8b 78 7a 2f 20 d1 ed 2f
       1.5892034e-11 1.5861912e-24 2.2780193e-10 4.325864e-10
000020 b7 4b 67 34 ed ce 29 27 e3 fb 22 2d 03 fe dd 37
       2.1541096e-07 2.3565636e-15 9.264564e-12 2.6463536e-05
000030 de 3d d1 33 0e 37 ef 37 d4 ee 3f 30 ce 2f 11 39
       9.7435745e-08 2.8516657e-05 6.982479e-10 0.00013846086
000040 5a 71 c9 2b 46 6e 23 2c eb d1 f5 27 8f 52 4d 31
       1.431337e-12 2.3224907e-12 6.8228754e-15 2.9878355e-09
000050 3f 08 f7 38 17 bb 4a 37 71 9f 2f 31 08 e6 ce 04
       0.00011779414 1.20836985e-05 2.5556484e-09 4.8641618e-36
000060 47 75 2d 2b 2c 37 6c 35 92 3f e9 27 6a 06 0c 38
       6.16247e-13 8.7997137e-07 6.4739414e-15 3.3384575e-05
000070 e0 12 3a 31 af 1e f8 37 d2 4c 08 1d 0b 45 c9 2e
       2.7077292e-09 2.9578192e-05 1.8039165e-21 9.152686e-11

l1.gcn1.DecoupleA f4 [3, 8, 19, 19]
000000 14 82 cf 37 6a da 84 b9 11 87 8f 38 64 f6 5e 3d
       2.4736895e-05 -0.00025339733 6.8439294e-05 0.054434195
000010 27 a9 35 b6 9a 6d ac 37 6c 48 f4 b4 e3 ad 11 35
       -2.7069561e-06 2.0555035e-05 -4.5501235e-07 5.426975e-07
000020 0d bf ce b4 dc 00 78 3d f4 bc c3 34 4c 5c ab 35
       -3.8509498e-07 0.060547695 3.6459062e-07 1.2767355e-06
000030 13 27 ee bb fb 98 88 b3 d7 38 b2 b6 13 fc 8f b8
       -0.0072678416 -6.3608205e-08 -5.3114304e-06 -6.865724e-05
000040 92 f7 a4 bc 48 69 f3 b4 27 ef 4c bd 0c bc ef 34
       -0.020137582 -4.533888e-07 -0.05003276 4.465404e-07
000050 95 01 3c 3b b8 c6 aa bc f9 f2 be 32 7b 74 9f b5
       0.0028687466 -0.02084671 2.2229402e-08 -1.1880323e-06
000060 3e 75 90 ba 84 f9 df bc e9 cc 78 34 1a 99 06 34
       -0.0011021269 -0.027340658 2.3171346e-07 1.253542e-07
000070 bd 9f 97 36 28 7c 54 b6 ad 24 36 b8 41 75 d5 39
       4.5187467e-06 -3.166273e-06 -4.342634e-05 0.00040713887
000080 96 76 2e 35 32 fa 7c 3a 8f a2 17 b8 86 7c 25 38
       6.4992616e-07 0.0009650319 -3.61526e-05 3.9455037e-05
000090 62 b0 28 33 07 5f 36 bb 04 a3 01 b6 02 92 9f 35
       3.9275967e-08 -0.0027827637 -1.9317386e-06 1.1888917e-06
0000a0 5b 4f dd 38 40 e4 1d 34 87 1c f5 b9 e5 12 7b 3a
       0.00010552882 1.4704801e-07 -0.00046751296 0.00095777056
0000b0 dc b0 98 b7 59 64 cd 3b d6 28 5a 35 dc 11 9b 3d
       -1.8202169e-05 0.006268066 8.127075e-07 0.07571766
0000c0 c6 01 61 33 5d 97 19 35 29 a2 42 34 ca a3 b8 34
       5.2388508e-08 5.7217204e-07 1.8126651e-07 3.4391843e-07
0000d0 84 c7 04 ba 00 d3 eb b9 8e 3a 66 35 75 19 c2 b7
       -0.00050651305 -0.000449799 8.5766885e-07 -2.3138457e-05
0000e0 23 20 96 3a 7c e4 2d b7 29 cc e2 37 07 cc cd b4
       0.0011453669 -1.0364802e-05 2.7036369e-05 -3.8332675e-07
0000f0 d3 ac 56 36 2f a8 2f bd 68 42 08 bc 89 eb 04 37
       3.1989082e-06 -0.042885 -0.008316614 7.922653e-06
000100 0e db 19 3d 49 96 47 37 94 01 d0 b2 15 9c 39 3b
       0.037562422 1.1896315e-05 -2.4215105e-08 0.0028321792
000110 e1 0d 8e bc 70 46 5c 34 98 dd 49 3b 12 5a 43 b6
       -0.017340602 2.0514722e-07 0.0030802246 -2.9109692e-06
000120 77 d8 12 b6 10 59 e2 b7 70 79 a1 37 3a a2 a7 ba
       -2.1881694e-06 -2.6982772e-05 1.9249244e-05 -0.0012789436
000130 e7 95 03 b6 a3 3d a5 34 d0 a9 80 38 fb 82 cb b3
       -1.9607776e-06 3.0778492e-07 6.135146e-05 -9.476749e-08
000140 40 36 fe 34 4a 72 f8 32 10 dc 6e 35 8b bf 78 b4
       4.735066e-07 2.8922972e-08 8.898214e-07 -2.3166483e-07
000150 66 61 7e bc d0 9e aa bc 53 80 f6 3b ce 22 cc 32
       -0.015526151 -0.02082768 0.0075226217 2.3764553e-08
000160 b1 d8 b2 32 75 28 56 36 bd 53 b8 36 5d 09 44 b7
       2.0820467e-08 3.1912034e-06 5.4933757e-06 -1.168469e-05
000170 b5 bd 8b b9 4a c2 40 3c 17 81 db b3 ff 78 e5 38
       -0.0002665349 0.011765072 -1.02214635e-07 0.00010942108
000180 89 7c 54 b5 a7 7d c1 36 ed 00 dd 35 43 52 2c b9
       -7.9157377e-07 5.766476e-06 1.6466053e-06 -0.00016433843
000190 d2 c8 8b b7 45 df 8b b6 82 6d d8 38 fe 98 db 35
       -1.6663605e-05 -4.168515e-06 0.0001032008 1.6361298e-06
0001a0 30 a6 27 b7 b0 a8 93 b9 6a 41 32 33 9a cd 9b 3c
       -9.992669e-06 -0.00028163707 4.150335e-08 0.019018937
0001b0 5d 78 a9 33 21 c4 fc b6 29 d8 62 b5 2b 10 f8 3a
       7.89157e-08 -7.5330177e-06 -8.4506115e-07 0.0018925717
0001c0 0e 35 78 b4 68 a3 63 35 ca d5 1c 35 8d f9 b0 38
       -2.3116101e-07 8.480188e-07 5.842563e-07 8.4388164e-05
0001d0 61 56 2c b9 31 a6 48 35 ed 5d b0 b7 16 23 b4 38
       -0.00016435377 7.4747646e-07 -2.1024573e-05 8.589604e-05
0001e0 ee 4d 16 3c 03 dc 9e b9 45 73 e0 b9 93 d6 85 35
       0.009173853 -0.0003030003 -0.00042810492 9.971722e-07
0001f0 1e 0e dc 36 76 5f f6 39 3e aa 05 ba 7d 85 05 34
       6.5581544e-06 0.000469919 -0.00050989154 1.2435153e-07
000200 c7 70 04 35 c0 60 de 35 78 fd 8b b8 4c 78 97 38
       4.9337945e-07 1.6568447e-06 -6.675249e-05 7.222648e-05
000210 a8 07 7a 35 95 7f 62 b6 55 90 01 3b e8 ef fe 36
       9.31434e-07 -3.3750887e-06 0.0019769866 7.5977186e-06
000220 eb 7c c3 38 dd 85 9b 39 32 bb 5e b6 43 9c 21 b5
       9.3215924e-05 0.0002966364 -3.318954e-06 -6.0204565e-07
000230 27 15 09 38 54 87 90 3a 8c 1b e3 bc ce a5 a3 34
       3.2683045e-05 0.0011026659 -0.027723096 3.0481755e-07
000240 03 2f 11 bb 70 78 89 b7 61 e5 31 3d a0 d9 d4 37
       -0.0022153265 -1.6387756e-05 0.043431643 2.5373709e-05
000250 c8 85 ea b4 35 dd 91 b7 1a af 9f ba 73 10 d9 b8
       -4.3683235e-07 -1.7388355e-05 -0.0012182922 -0.0001035043
000260 ff 62 24 37 59 ab ea bc d6 4f ff 3c 0e 75 0e 34
       9.798211e-06 -0.028646158 0.031165998 1.3267365e-07
000270 a7 60 b2 b6 bf 62 b2 bd 7a 20 de 34 c7 e3 58 38
       -5.316065e-06 -0.087102406 4.1374352e-07 5.1710547e-05
000280 f8 03 5a b6 0a 89 74 38 fc 05 c0 37 26 dc bd b5
       -3.2486842e-06 5.830176e-05 2.289097e-05 -1.4145669e-06
000290 d4 e5 1a b4 44 05 98 34 9e 28 1e b3 52 b7 a8 bd
       -1.4425979e-07 2.8316038e-07 -3.6824183e-08 -0.082380906
0002a0 18 cd 2f bd 99 1f 42 34 10 11 3f 3d d7 3e 03 b3
       -0.042920202 1.8079153e-07 0.04664713 -3.0557967e-08
0002b0 02 51 c9 35 38 f2 09 b6 fb 11 3d b6 fc 1a 26 b8
       1.4999243e-06 -2.055558e-06 -2.817366e-06 -3.9602615e-05
0002c0 0d 89 63 3c 8c 92 72 39 e2 7d f5 34 3b ba 10 36
       0.013887656 0.00023133511 4.5726398e-07 2.1566073e-06
0002d0 04 21 18 35 2c b5 36 bd 19 e8 36 3d ea 1b 3f 37
       5.6672457e-07 -0.044606373 0.04465494 1.1390986e-05
0002e0 06 76 76 bd 58 46 d9 35 6e ea cf 3c 08 35 3c 3d
       -0.06017115 1.6188233e-06 0.02538034 0.045949012
0002f0 2a 20 e3 b7 4c 48 47 36 9f 0b a9 3b c6 fa 8e bc
       -2.7075486e-05 2.9695393e-06 0.005158856 -0.017453562
000300 d1 d6 bd bc d5 0e 37 35 f9 4c 31 3b ae f9 c3 b9
       -0.023173722 6.8194396e-07 0.0027053936 -0.00037379324
000310 9d 53 28 ba 20 a7 21 3c cd 77 03 37 17 70 b1 35
       -0.0006421151 0.009866506 7.836102e-06 1.322015e-06
000320 aa 3a 31 b8 c4 7b 82 ba 19 37 57 34 12 bb 8d 37
       -4.2254724e-05 -0.0009955098 2.004348e-07 1.6895621e-05
000330 19 08 a4 3d 45 d7 a6 3b 81 23 e8 b6 7b 07 26 bd
       0.08009357 0.00509158 -6.918272e-06 -0.040534478
000340 38 8b 38 34 86 d5 13 b5 ef 21 b5 b5 b7 3b 9a 36
       1.7186983e-07 -5.5072485e-07 -1.3495427e-06 4.5965094e-06
000350 95 bb c7 38 72 fa 73 b6 ff d6 85 b6 f8 66 8b b5
       9.523999e-05 -3.63556e-06 -3.9887377e-06 -1.0386275e-06
000360 eb 91 ea ba 49 8b 0d 35 9e 8a 59 39 fa 62 7f 34
       -0.001789627 5.272928e-07 0.00020746372 2.3784733e-07
000370 79 2a 07 32 bb 0e 95 b5 12 d8 a2 b3 32 81 1f b6
       7.867691e-09 -1.1105652e-06 -7.583016e-08 -2.3768048e-06
000380 ad a8 87 b6 f7 e4 67 b5 8f 07 bd 33 8c a9 4a b9
       -4.04295e-06 -8.6387394e-07 8.802373e-08 -0.00019327382
000390 cd b4 25 3c 98 31 10 36 43 0d a9 37 fb ac 0a 34
       0.010113907 2.148654e-06 2.0152545e-05 1.2915181e-07
0003a0 f8 ba 52 b6 c3 82 9c b9 5f 9d 64 35 01 b7 6d 36
       -3.1401269e-06 -0.00029852064 8.5165624e-07 3.5422274e-06
0003b0 23 dd 6a b6 58 1f 80 35 ea 5a 99 bc 82 fe c7 34
       -3.4997436e-06 9.545865e-07 -0.018720109 3.7251817e-07
0003c0 8c 39 80 b8 85 f3 41 b4 78 3a 9d b7 46 df d3 b6
       -6.1142346e-05 -1.8063118e-07 -1.8743085e-05 -6.3142825e-06
0003d0 0f 26 3a b7 fe 8f 38 35 df 68 e6 bc 36 f8 ae 35
       -1.1095325e-05 6.875488e-07 -0.028126178 1.3036249e-06
0003e0 15 0b ef b7 e2 60 0b 36 89 c2 34 3c 5b 54 91 ba
       -2.849618e-05 2.0769007e-06 0.011032709 -0.0011087762
0003f0 42 03 c0 ba b6 73 82 b9 27 82 97 b7 11 ee 43 3c
       -0.0014649408 -0.00024881744 -1.806121e-05 0.011958615

l1.gcn1.PA f4 [3, 19, 19]
000000 00 00 80 3f 00 00 00 00 00 00 00 00 00 00 00 00
       1.0 0.0 0.0 0.0
000010 00 00 00 00 00 00 00 00 00 00 00 00 00 00 00 00
       0.0 0.0 0.0 0.0
000020 00 00 00 00 00 00 00 00 00 00 00 00 00 00 00 00
       0.0 0.0 0.0 0.0
000030 00 00 00 00 00 00 00 00 00 00 00 00 00 00 00 00
       0.0 0.0 0.0 0.0
000040 00 00 00 00 00 00 00 00 00 00 00 00 00 00 00 00
       0.0 0.0 0.0 0.0
000050 00 00 80 3f 00 00 00 00 00 00 00 00 00 00 00 00
       1.0 0.0 0.0 0.0
000060 00 00 00 00 00 00 00 00 00 00 00 00 00 00 00 00
       0.0 0.0 0.0 0.0
000070 00 00 00 00 00 00 00 00 00 00 00 00 00 00 00 00
       0.0 0.0 0.0 0.0
000080 00 00 00 00 00 00 00 00 00 00 00 00 00 00 00 00
       0.0 0.0 0.0 0.0
000090 00 00 00 00 00 00 00 00 00 00 00 00 00 00 00 00
       0.0 0.0 0.0 0.0
0000a0 00 00 80 3f 00 00 00 00 00 00 00 00 00 00 00 00
       1.0 0.0 0.0 0.0
0000b0 00 00 00 00 00 00 00 00 00 00 00 00 00 00 00 00
       0.0 0.0 0.0 0.0
0000c0 00 00 00 00 00 00 00 00 00 00 00 00 00 00 00 00
       0.0 0.0 0.0 0.0
0000d0 00 00 00 00 00 00 00 00 00 00 00 00 00 00 00 00
       0.0 0.0 0.0 0.0
0000e0 00 00 00 00 00 00 00 00 00 00 00 00 00 00 00 00
       0.0 0.0 0.0 0.0
0000f0 00 00 80 3f 00 00 00 00 00 00 00 00 00 00 00 00
       1.0 0.0 0.0 0.0
000100 00 00 00 00 00 00 00 00 00 00 00 00 00 00 00 00
       0.0 0.0 0.0 0.0
000110 00 00 00 00 00 00 00 00 00 00 00 00 00 00 00 00
       0.0 0.0 0.0 0.0
000120 00 00 00 00 00 00 00 00 00 00 00 00 00 00 00 00
       0.0 0.0 0.0 0.0
000130 00 00 00 00 00 00 00 00 00 00 00 00 00 00 00 00
       0.0 0.0 0.0 0.0
000140 00 00 80 3f 00 00 00 00 00 00 00 00 00 00 00 00
       1.0 0.0 0.0 0.0
000150 00 00 00 00 00 00 00 00 00 00 00 00 00 00 00 00
       0.0 0.0 0.0 0.0
000160 00 00 00 00 00 00 00 00 00 00 00 00 00 00 00 00
       0.0 0.0 0.0 0.0
000170 00 00 00 00 00 00 00 00 00 00 00 00 00 00 00 00
       0.0 0.0 0.0 0.0
000180 00 00 00 00 00 00 00 00 00 00 00 00 00 00 00 00
       0.0 0.0 0.0 0.0
000190 00 00 80 3f 00 00 00 00 00 00 00 00 00 00 00 00
       1.0 0.0 0.0 0.0
0001a0 00 00 00 00 00 00 00 00 00 00 00 00 00 00 00 00
       0.0 0.0 0.0 0.0
0001b0 00 00 00 00 00 00 00 00 00 00 00 00 00 00 00 00
       0.0 0.0 0.0 0.0
0001c0 00 00 00 00 00 00 00 00 00 00 00 00 00 00 00 00
       0.0 0.0 0.0 0.0
0001d0 00 00 00 00 00 00 00 00 00 00 00 00 00 00 00 00
       0.0 0.0 0.0 0.0
0001e0 00 00 80 3f 00 00 00 00 00 00 00 00 00 00 00 00
       1.0 0.0 0.0 0.0
0001f0 00 00 00 00 00 00 00 00 00 00 00 00 00 00 00 00
       0.0 0.0 0.0 0.0
000200 00 00 00 00 00 00 00 00 00 00 00 00 00 00 00 00
       0.0 0.0 0.0 0.0
000210 00 00 00 00 00 00 00 00 00 00 00 00 00 00 00 00
       0.0 0.0 0.0 0.0
000220 00 00 00 00 00 00 00 00 00 00 00 00 00 00 00 00
       0.0 0.0 0.0 0.0
000230 00 00 80 3f 00 00 00 00 00 00 00 00 00 00 00 00
       1.0 0.0 0.0 0.0
000240 00 00 00 00 00 00 00 00 00 00 00 00 00 00 00 00
       0.0 0.0 0.0 0.0
000250 00 00 00 00 00 00 00 00 00 00 00 00 00 00 00 00
       0.0 0.0 0.0 0.0
000260 00 00 00 00 00 00 00 00 00 00 00 00 00 00 00 00
       0.0 0.0 0.0 0.0
000270 00 00 00 00 00 00 00 00 00 00 00 00 00 00 00 00
       0.0 0.0 0.0 0.0
000280 00 00 80 3f 00 00 00 00 00 00 00 00 00 00 00 00
       1.0 0.0 0.0 0.0
000290 00 00 00 00 00 00 00 00 00 00 00 00 00 00 00 00
       0.0 0.0 0.0 0.0
0002a0 00 00 00 00 00 00 00 00 00 00 00 00 00 00 00 00
       0.0 0.0 0.0 0.0
0002b0 00 00 00 00 00 00 00 00 00 00 00 00 00 00 00 00
       0.0 0.0 0.0 0.0
0002c0 00 00 00 00 00 00 00 00 00 00 00 00 00 00 00 00
       0.0 0.0 0.0 0.0
0002d0 00 00 80 3f 00 00 00 00 00 00 00 00 00 00 00 00
       1.0 0.0 0.0 0.0
0002e0 00 00 00 00 00 00 00 00 00 00 00 00 00 00 00 00
       0.0 0.0 0.0 0.0
0002f0 00 00 00 00 00 00 00 00 00 00 00 00 00 00 00 00
       0.0 0.0 0.0 0.0
000300 00 00 00 00 00 00 00 00 00 00 00 00 00 00 00 00
       0.0 0.0 0.0 0.0
000310 00 00 00 00 00 00 00 00 00 00 00 00 00 00 00 00
       0.0 0.0 0.0 0.0
000320 00 00 80 3f 00 00 00 00 00 00 00 00 00 00 00 00
       1.0 0.0 0.0 0.0
000330 00 00 00 00 00 00 00 00 00 00 00 00 00 00 00 00
       0.0 0.0 0.0 0.0
000340 00 00 00 00 00 00 00 00 00 00 00 00 00 00 00 00
       0.0 0.0 0.0 0.0
000350 00 00 00 00 00 00 00 00 00 00 00 00 00 00 00 00
       0.0 0.0 0.0 0.0
000360 00 00 00 00 00 00 00 00 00 00 00 00 00 00 00 00
       0.0 0.0 0.0 0.0
000370 00 00 80 3f 00 00 00 00 00 00 00 00 00 00 00 00
       1.0 0.0 0.0 0.0
000380 00 00 00 00 00 00 00 00 00 00 00 00 00 00 00 00
       0.0 0.0 0.0 0.0
000390 00 00 00 00 00 00 00 00 00 00 00 00 00 00 00 00
       0.0 0.0 0.0 0.0
0003a0 00 00 00 00 00 00 00 00 00 00 00 00 00 00 00 00
       0.0 0.0 0.0 0.0
0003b0 00 00 00 00 00 00 00 00 00 00 00 00 00 00 00 00
       0.0 0.0 0.0 0.0
0003c0 00 00 80 3f 00 00 00 00 00 00 00 00 00 00 00 00
       1.0 0.0 0.0 0.0
0003d0 00 00 00 00 00 00 00 00 00 00 00 00 00 00 00 00
       0.0 0.0 0.0 0.0
0003e0 00 00 00 00 00 00 00 00 00 00 00 00 00 00 00 00
       0.0 0.0 0.0 0.0
0003f0 00 00 00 00 00 00 00 00 00 00 00 00 00 00 00 00
       0.0 0.0 0.0 0.0

l1.gcn1.Linear_weight f4 [4, 96]
000000 5c 28 0e b1 09 fb d7 ba a9 71 e2 3b 5f 60 dc b3
       -2.0686661e-09 -0.0016478013 0.006910522 -1.0262078e-07
000010 53 66 2b b8 ab 9f f0 bc f1 36 71 b9 ba 39 3e b9
       -4.0864874e-05 -0.02937301 -0.00023004018 -0.00018141317
000020 17 3d be b1 89 a7 fb bb 2e 49 89 ba 7a 8d 8a bb
       -5.536673e-09 -0.007679884 -0.001047408 -0.004228291
000030 89 f8 bc 3b b5 a1 95 bd a5 01 60 bd 50 f2 5a 3a
       0.0057669324 -0.07306234 -0.05468907 0.00083521474
000040 00 41 9f 19 ac 80 11 3b 02 f2 3c bb 60 8f cc 3b
       1.6466468e-23 0.0022201939 -0.0028830771 0.0062426776
000050 eb ee 99 b9 a6 24 7d bd ff d8 ee b8 78 29 5d 3a
       -0.00029360442 -0.06180253 -0.00011389143 0.000843666
000060 39 ee 03 a6 16 96 c7 3d c0 73 ce ba 95 23 b5 b3
       -4.5772607e-16 0.097454235 -0.0015751049 -8.4349416e-08
000070 20 18 70 bb 6a 24 8c ba f6 ce db b6 e9 f2 f8 b7
       -0.0036635473 -0.0010692005 -6.550802e-06 -2.9677018e-05
000080 ce ee 0c 32 83 83 6f 39 9a e3 85 bc e2 f5 d5 37
       8.20337e-09 0.00022841808 -0.01634388 2.5506077e-05
000090 b5 bf be bb db 2a aa bb 60 98 26 3c bf be 81 bb
       -0.005821193 -0.005193097 0.010168165 -0.0039595063
0000a0 2d ae f1 31 5b ca 00 3d f7 02 75 bb f6 a4 26 bb
       7.0338246e-09 0.03144298 -0.00373858 -0.0025427914
0000b0 04 69 1b bc 87 3f 09 bb b5 2d 8e bc ef 1a 9a 3c
       -0.009485487 -0.0020942406 -0.01735578 0.018811671
0000c0 d6 09 a7 32 c8 e3 25 33 c1 cf c2 bb a6 bb 6c 3b
       1.9445832e-08 3.8624222e-08 -0.0059451764 0.003612259
0000d0 1c a9 27 3c 6b e7 5b 3b 62 5b 86 3b a5 25 c6 3b
       0.01023319 0.0033554684 0.004100249 0.006046968
0000e0 43 07 84 b6 db b0 2f 3d f7 37 16 3b 32 4b ec 3b
       -3.934752e-06 0.042893272 0.0022921541 0.0072111124
0000f0 b8 4f 06 3c c1 7b 82 3b 69 29 d8 bb 1c 1f 85 b8
       0.008197717 0.003982038 -0.0065967334 -6.347729e-05
000100 f6 8e b7 b1 af 17 70 ba 45 2a bf 3b b3 16 f5 b9
       -5.3422538e-09 -0.00091588026 0.0058338963 -0.00046746954
000110 2f fe a5 ba 23 aa b5 3c ce 4d 2e 3d c7 12 0e bb
       -0.0012664254 0.022175854 0.04255467 -0.0021678673
000120 44 69 48 34 1b 9b b9 bc 8e f0 1f 3c 10 9f 3f bb
       1.8664747e-07 -0.022656968 0.009761943 -0.0029239096
000130 a7 a7 05 bd af ad 59 3d 83 2d 87 bc 21 29 80 3d
       -0.03263059 0.053144153 -0.016501194 0.06257845
000140 84 cb 41 2b 8f e5 db 36 d8 40 b8 3b d8 ca 58 3b
       6.884981e-13 6.5534327e-06 0.0056229644 0.0033079889
000150 50 fd 9f 3a 4b 1b 82 bb c2 48 c6 3b e2 cc 12 bc
       0.001220623 -0.0039705387 0.006051154 -0.008959981
000160 8b ea c5 b2 65 8c 3a bd 82 b4 64 bc af 27 b7 bb
       -2.3040476e-08 -0.045544047 -0.013959052 -0.0055894474
000170 01 53 a5 b8 ee e0 49 b9 9a 93 c3 b9 e9 55 4d ba
       -7.883274e-05 -0.00019252647 -0.0003730327 -0.0007832931
000180 7f 1f 1d b0 dc 60 48 bb ca bd 82 3c 28 be 72 33
       -5.7161026e-10 -0.003057531 0.01595964 5.6517962e-08
000190 59 8a 4f b7 9e 81 2b 3e 19 05 41 ba 86 71 cd b9
       -1.2370373e-05 0.16748664 -0.00073631253 -0.00039185229
0001a0 f0 02 41 30 24 a8 55 bc fd 38 6e bc df 2b 3f bc
       7.0217165e-10 -0.013040576 -0.014539954 -0.0116681745
0001b0 7a 6c 50 bb 41 9e 06 3d df 33 73 3d b2 8a df 3c
       -0.0031802938 0.032865766 0.05937564 0.027287815
0001c0 03 af 31 9f 6e d3 e5 3a 76 7d 3b 3b a3 b0 80 bb
       -3.7625974e-20 0.0017534324 0.0028608716 -0.0039273067
0001d0 6a b0 0d 3a b7 59 fd 3c 5a be d0 b9 dc 17 f6 3a
       0.0005405011 0.030926568 -0.00039814675 0.0018775421
0001e0 71 b0 f3 a4 db 83 76 bd 9b 88 67 3c 76 44 ba b3
       -1.05683355e-16 -0.06018434 0.01413169 -8.673753e-08
0001f0 4e 4b 89 3b de db 19 3a 5c 89 2b b9 e0 93 3c b8
       0.004189885 0.00058692496 -0.00016359001 -4.4960412e-05
000200 55 01 80 b4 ba c1 3a 3a 79 14 18 bd d6 94 11 ba
       -2.3842827e-07 0.00071242044 -0.0371289 -0.00055534893
000210 8c 4e b4 bc bb 24 1d 3d f3 14 0f bb 16 6e 45 3b
       -0.02201011 0.038365107 -0.0021832555 0.003012543
000220 99 52 fd 32 bd 6c f1 3c d5 04 f7 bb 15 6b 26 bd
       2.9490637e-08 0.029470796 -0.007538418 -0.040629465
000230 b4 01 1c 3c b3 31 9e 3c 0a 23 06 bc 2b 67 6a b7
       0.00952189 0.019310808 -0.008187065 -1.39715075e-05
000240 ec 7f 02 b3 40 90 c9 b3 78 6e a2 3a 80 7b 4e 3c
       -3.0384328e-08 -9.386031e-08 0.0012392541 0.012602687
000250 a4 35 c6 3c c9 4c 09 bc 31 83 3c 3c c7 00 98 3b
       0.0241955 -0.008380123 0.011505888 0.0046387645
000260 6f 53 66 38 fe 41 7d 3d f7 74 0d 3b ae 4a 69 3c
       5.4913977e-05 0.061830513 0.002158461 0.014238996
000270 85 fd 13 3d 90 cc fe 3b 35 5a bc 3c 00 de 62 b9
       0.036130447 0.0077758506 0.022992233 -0.00021635741
000280 2c 20 29 33 9b a8 88 ba 39 50 5a bc 30 3c 7e 3b
       3.937764e-08 -0.0010426225 -0.013324791 0.0038793199
000290 8b b4 65 3b c1 5a 52 3c ee c1 63 3d e2 79 e5 ba
       0.003505024 0.01283902 0.055604868 -0.0017507637
0002a0 08 44 9d b4 55 c7 18 bc d8 71 a8 bc 5a 49 2c bc
       -2.9293028e-07 -0.009324868 -0.020562097 -0.010515535
0002b0 80 a6 43 3d 13 9c 18 3d d2 0a a2 3d bc 3a a1 bd
       0.04776621 0.03725822 0.0791222 -0.07872531
0002c0 5d be 26 ac e5 b4 a5 37 25 7a d4 bc 0f c2 b6 bc
       -2.3695692e-12 1.9753768e-05 -0.02593715 -0.022309331
0002d0 fb f1 12 3c ac 11 ca bc 31 05 80 ba b8 c3 25 bd
       0.008968825 -0.02466663 -0.0009767172 -0.040469855
0002e0 44 15 a7 34 61 f9 82 3b 8e 87 11 3d 2b ad f0 39
       3.1121647e-07 0.0039970134 0.035529666 0.00045905387
0002f0 3f 5b 18 3c f6 91 bf 3a cc 49 79 3a e3 b9 83 bb
       0.0092990985 0.0014615643 0.0009509593 -0.004019962
000300 d4 ae bf b0 b1 fb e6 bb 99 6c ae bb 1b 04 43 34
       -1.3946768e-09 -0.007049047 -0.0053230044 1.8162284e-07
000310 f4 d2 18 38 2c 3c 8c bd 38 07 c9 ba 8a e5 38 b8
       3.643609e-05 -0.068474144 -0.0015337234 -4.4082793e-05
000320 1c fc dc 31 a8 41 70 bd d9 fb 80 3d 04 22 85 3b
       6.431504e-09 -0.058656365 0.06298036 0.004062893
000330 d8 c9 35 3b 34 58 b0 bd 3a 5b 31 bd 9a 7e 0f bb
       0.0027738716 -0.086105734 -0.04329989 -0.0021895529
000340 d1 67 64 1c e7 15 be 3a a5 41 dc 3b b6 c7 d7 bb
       7.557305e-22 0.0014502377 0.0067216926 -0.0065850867
000350 25 bb 7c 39 a1 c0 91 bd 67 63 74 39 a5 30 9a 3b
       0.0002410231 -0.07116819 0.00023306684 0.004705506
000360 cc 03 87 a5 f4 c0 9d 3c d5 54 fd b9 48 bb f8 b2
       -2.342134e-16 0.019257046 -0.00048319125 -2.8956165e-08
000370 fd 22 18 3a 61 6e 60 b9 97 8a b5 b8 7c ea 57 b8
       0.00058035535 -0.00021403424 -8.656567e-05 -5.1478375e-05
000380 e5 55 09 35 cc e7 8a b9 48 ce a8 3b 2b c9 b6 b8
       5.116147e-07 -0.00026494113 0.0051515438 -8.715907e-05
000390 2b 52 eb 3a 65 95 e0 3c 66 6d 8e 3b 44 72 1a 3a
       0.0017953565 0.027414987 0.0043465374 0.00058916607
0003a0 f4 3c 43 30 8a 20 3b 3c 12 37 13 bd 21 17 ac 3c
       7.1027206e-10 0.011421332 -0.03594119 0.021007122
0003b0 bf dd 55 bd 38 3b 96 bd 03 6f b0 bc 4d 80 9b 3b
       -0.052213427 -0.07335514 -0.02153731 0.0047455193
0003c0 5e c7 17 b3 74 3c 0a 32 75 b1 d6 3b 0d ef 3f 3b
       -3.533875e-08 8.046403e-09 0.0065519162 0.0029286772
0003d0 29 f4 54 bb 05 ce bc bd 86 2f 99 3b 78 c1 b4 bb
       -0.0032494164 -0.092189826 0.0046748547 -0.0055162273
0003e0 b1 b8 43 37 1f cb 7b bc 84 ea ca bb 59 8d 97 3b
       1.1665908e-05 -0.015368252 -0.006192507 0.0046250043
0003f0 02 1f 07 3c c4 88 b3 3c bf c1 37 bc 03 65 16 b9
       0.008247139 0.0219158 -0.011215626 -0.00014342745
